good_enough_actor_weights.pth (torch_old, 151141 bytes, 6 tensors)

fc1.weight f4 [200, 33]
00000000: 2fd8 97bd ccd1 e23e 4833 edbe daf2 32bd
00000010: 9541 383d 20b7 49be 0fd1 463e 78a8 0e3b
00000020: af37 873e e523 3d3e ad55 9fbd 3875 793d
00000030: b776 ef3d 5f84 223e 78d7 d4be 43da 2c3e
00000040: 785a 1bbd 97b5 94be 6918 2fbe d7b3 c3be
00000050: 69a5 24bd 9ee8 42bd fa67 ff3c 3491 6a3d
00000060: 2a10 81be 2bbf a73d acbf 1dbf 56f4 9c3f
00000070: ccbf cbbd 124e c6bd c8f0 97bf 4cb0 153e
00000080: a6fe 43c0 fbe6 af3c 2eaa e43e 2aae 83be
00000090: 7288 033d 25ab 193f 72ac 173d 3927 07be
000000a0: 1f45 a63d c7b2 d93e e6ea f2bd 90ea 66bd
000000b0: bf96 6abe 0d30 983e da50 d33c 5659 fd3d
000000c0: 3b90 883e 48c7 13bf ce8a 5abe eee5 a03d
000000d0: 1254 66bd f14c c23c 7de7 0e3e 1756 823e
000000e0: e567 26be b003 763e 9608 02be 8a89 efbe
000000f0: da6c 993f c2a3 00bf a10e 17be 8424 91bf
00000100: 206d cf3d ffce 683f bc41 813d 9cfe c83e
00000110: 30be 443f 6b3b d1be d2fc c8be 230a 953e
00000120: 72e3 d63e a7a7 06be e879 c23e 7520 623f
00000130: 8691 9abe 6a8d bb3e 5dff b63e 1fde e3be
00000140: dc0a 9cbe 5b94 57be 6c4a a63d 14ef d93c
00000150: 7329 013e 84ce 923e a411 163e d816 223d
00000160: 0b68 a53e 931d 10be 03d5 98be cedf 52bd
00000170: 3c6d 1e3b 9f6e 0c3f e772 12be ac4d fdbd
00000180: dd72 41bf ea67 933d b4d7 03c0 ccf9 743e
00000190: d68e 95be bad3 3dbe b53f 143e f952 543f
000001a0: d440 82be 5b95 febe d884 22be 64b0 003f
000001b0: f5a0 2e3e 1673 ddbd 6a93 08bf 4532 03bd
000001c0: 0371 923d dad9 a13e c22f 1b3f f067 b13e
000001d0: c282 083e 87f2 b23d 25ea 91bd f784 debe
000001e0: 8a26 273e e514 d53e dd78 833e f87e dd3e
000001f0: 5150 91be 5b73 323e 52a5 703f 297b f1be
00000200: fcd4 073e 48aa 40bf 003d 5fbc 622a fd3e
00000210: e71c 663c 0295 643f 4258 81bd 7f6a 0dbd
00000220: c3dd bebd 8cca 873e a4b8 413e bb09 143d
00000230: 769f 883e ed26 8e3c 1bfb 0abd efab e63d
00000240: 8abf a2bd 240f 7f3e cb18 0bbf f6c2 023f
00000250: dac5 463e ab4b 343e b9e0 74bd 29f8 e3bd
00000260: e18c 39be 9fb1 383e e7b5 fa3d 2e9e 62bd
00000270: 9a2a 8ebd fa95 f93d 6333 b3be ebf1 643f
00000280: 9baf e6be bcba 07bd c953 8abf b847 193e
00000290: a53d c73f 4ab7 b03e ba66 983c 25c9 7c3e
000002a0: d1a7 acbd c8d8 8cbe 6fc9 3ebe 116a 1b3e
000002b0: c771 0c3e 3a24 573d bb8d b03e c009 823e
000002c0: c6b6 90bc 4f1e 913c a93e bdbc 188d 923e
000002d0: a8ac 37be 74b8 223f 664e 89be 976c 6cbd
000002e0: 04dd 33be 1f6a ad3c f0fa ee3b babf 5a3e
000002f0: 10e7 373f 6c74 20be 239b 64bd faa7 fb3c
00000300: a75b 6a3f a3ee 823e 5896 f73d 55e2 5bbf
00000310: f83c 1f3e ecf6 18c0 a6c7 b83e 1405 173e
00000320: 06eb babd 7f72 f6bd 8caa 90be 02a6 0b3d
00000330: ada0 9ebf 8f17 303e c582 963f f393 39be
00000340: b51b c53e 0297 f23d 4325 f03d e63f 6ebe
00000350: 10b8 113f 18e6 a0be b84d 59be 06ca e13e
00000360: 1d4f 6c3e 56b8 263d c588 723e c8af ad3d
00000370: 3d6d 85be 5ed0 0dbf 0d34 37be 4b34 adbe
00000380: 122b 8a3e 3371 bd3f 8792 1bbc 8dd9 fdbd
00000390: 7795 c6bf 811e 25be 53b4 1d3f 0c42 6e3e
000003a0: d523 323f 88f8 593f 91f5 77bd 5380 ce3d
000003b0: bb3f 643d 9c15 d0bb 4a99 dbbe 55b7 0fbe
000003c0: 83f4 293f e8c7 06be 8330 ce3d c793 3b3e
000003d0: 7ee1 013f 03c3 df3d 073e 663d 541e 3b3e
000003e0: a478 cdbe 0dea 91be 6811 ecbd fa94 803e
000003f0: 6b5a 98be d504 033e 2e84 973d 3028 233e
-0.074142806 0.44300687 -0.46328187 -0.043688633 0.04498442 -0.19698763 0.19415687 0.0021767896
0.2640967 0.18470724 -0.07780013 0.060902804 0.11692565 0.15870808 -0.4157064 0.16880135
-0.037928075 -0.29044792 -0.17099155 -0.38223144 -0.04019681 -0.047585122 0.03117751 0.057267383
-0.25207645 0.08190759 -0.61620593 1.2262065 -0.09948692 -0.096828595 -1.1870356 0.14618033
-3.0624175 0.021472445 0.44661087 -0.25718814 0.032112546 0.6002677 0.03702969 -0.13198556
0.081186526 0.4251921 -0.118612096 -0.05637604 -0.22909068 0.2972416 0.025795389 0.12370555
0.2667254 -0.57725954 -0.21342012 0.078563556 -0.05623252 0.02371833 0.13955493 0.25456306
-0.1625057 0.24024844 -0.12698588 -0.4678462 1.1986344 -0.50249875 -0.14751674 -1.1339269
0.10128236 0.9094085 0.06311366 0.39256752 0.76852703 -0.40865645 -0.39255387 0.29109296
0.41970402 -0.13149892 0.37983632 0.88330775 -0.3018915 0.36631328 0.35741702 -0.44505402
-0.30477035 -0.21052687 0.081196636 0.02660326 0.12613468 0.28673184 0.14655167 0.039572567
0.3230594 -0.14073782 -0.29850015 -0.051482968 0.0024173995 0.54856294 -0.14301644 -0.1236833
-0.7556589 0.071975544 -2.0600405 0.23923415 -0.29210538 -0.18537799 0.14477427 0.82939106
-0.25440085 -0.49723324 -0.15870988 0.5026915 0.17053588 -0.108129665 -0.53349936 -0.032030363
0.071504615 0.3161152 0.6061975 0.3464961 0.1333113 0.08737665 -0.07124738 -0.4346082
0.16323295 0.41617504 0.2567815 0.43260932 -0.2838159 0.17426817 0.9400226 -0.47164276
0.13264841 -0.7525983 -0.013625383 0.49446398 0.014044977 0.8928987 -0.06315662 -0.03452539
-0.093196414 0.26521719 0.18918091 0.036142092 0.2668416 0.017352546 -0.03393088 0.112632625
-0.079466894 0.2490812 -0.54334706 0.51078737 0.19411412 0.1760699 -0.059784625 -0.11131317
-0.18120147 0.18036507 0.12241726 -0.055326633 -0.06941719 0.12186809 -0.35000142 0.8943164
-0.4505585 -0.03313707 -1.0806819 0.14968765 1.5565687 0.34514838 0.018603671 0.24686106
-0.08430446 -0.2750914 -0.18631528 0.1517718 0.13715278 0.052524783 0.34483132 0.25398064
-0.017665278 0.017714648 -0.023101168 0.2862327 -0.17936957 0.63562703 -0.26817626 -0.057720747
-0.1756478 0.021168767 0.0072930977 0.213622 0.7183695 -0.15669411 -0.055812012 0.030719746
0.915461 0.2557269 0.12089223 -0.8589223 0.15550601 -2.390071 0.3608982 0.14748031
-0.091268584 -0.12033557 -0.28255117 0.034093864 -1.2392784 0.17196487 1.1758658 -0.18122844
0.384977 0.11845209 0.11725857 -0.23266563 0.5692148 -0.31425548 -0.21221054 0.44099444
0.23077054 0.04070314 0.23684986 0.08480793 -0.26059905 -0.5539607 -0.1789095 -0.3382896
0.26985985 1.4800171 -0.009495384 -0.1239501 -1.5514363 -0.16124918 0.6160328 0.23267382
0.69585925 0.85144854 -0.060536925 0.1008307 0.05572484 -0.0063502323 -0.42890388 -0.1403478
0.6638872 -0.13162196 0.100678466 0.18318091 0.507347 0.109258674 0.056211498 0.18273288
-0.40131104 -0.2849888 -0.115267575 0.2511366 -0.29756483 0.12794812 0.07398258 0.15933299

fc1.bias f4 [200]
00000000: 516a 86bf 617e 82bf 6c30 0fbf 0481 5ebf
00000010: c3d9 86bf cfee 61bf 5d9b c2bf 66b1 0fbf
00000020: 6001 01bf 6f3d 02bf 3d17 79bf b4f2 8fbf
00000030: ebfb acbf 3c33 14bf f8a4 a2be 3ddf cfbe
00000040: 4692 19bf 78b2 3f3e 6989 07bf ed0b 0fbe
00000050: 1ba0 96bf a6ed 4ebf 0328 35bf a5d7 59bf
00000060: 2f61 40bf fec9 51bf 1f61 cbbe 8821 62bf
00000070: 9713 1ebf 0285 88be 5119 37bf f701 3ebf
00000080: be7f bfbb 24c7 78bf 9519 81bf 892c 0abe
00000090: b350 babe 0122 80bf 6f1c 2cbf 3116 3f3d
000000a0: 3d60 18be 467d 99bf 0985 03bf fedc 77bf
000000b0: 07fd 32bf 5b80 7fbf 6054 c3bf 9090 25bf
000000c0: f3cb 09bf 7fc3 71bf 99f2 fabe 83ec 95bf
000000d0: 1d12 0cbf 0112 bebe 939d 4fbf 4408 75bf
000000e0: d967 ccbe 8fc8 64bf c097 06bf f4e7 4bbf
000000f0: ee7b 81bf c6ae 39bf dd5a dbbe 7c47 7fbf
00000100: 43db abbe 5b22 39bf 3fdd f0be b7a4 7ebf
00000110: c307 88bf f417 5dbf fd2f 82bf 9ae5 88bf
00000120: b3a4 823d 5cb0 a9be 0548 f1be f908 18bf
00000130: 914e b6bd de94 1fbf 4976 85bf 1485 60bf
00000140: 34d3 4d3d 973b 48be 66ac 10be 68f1 ddbe
00000150: eb9a 39bf 9aae 8dbe f9ef 2d3d 124c a9bf
00000160: 20c1 9ebf d04f 07bf 61fa 07bf 5ab3 2abe
00000170: f0b0 7a3e 5729 4cbf 1400 7ebf c4a8 8fbf
00000180: 7c80 8cbf 863c 96bf 5511 07bf f1d4 80bf
00000190: 3bc2 c3bf 6776 23bf ed0c 5ebf c3c1 febe
000001a0: 3532 a1bf ac36 0bbf a5cd 62bf 55d8 2bbf
000001b0: 88f2 2c3e d102 54bf 20a0 03bf 1882 6fbe
000001c0: 7a2a 5ebf e274 3dbf 60b0 20bf 7c36 adbf
000001d0: 64f3 b5be 3021 12bf 9960 1d3e 3b27 6a3d
000001e0: 9df2 75bf d781 a4bf b7d8 f0be cbf2 41bf
000001f0: 2360 33bf db46 1dbf 9f11 47bf de30 21bf
00000200: 508b 70bf bee1 aebe 3b09 92bf 5022 00bf
00000210: 8c36 80be 69d0 b4bf 01c4 55bf d5a2 85bf
00000220: 4778 7ebf c707 79bf 4637 50bf d595 bebf
00000230: 2936 a1be d101 b0bf a8f8 51bf adf8 bfbf
00000240: a60b 09bf a8bf bcbe 3a2c be3e 9613 babf
00000250: 4ca1 10bf 4d03 27bf aa5a b8be e05d bf3e
00000260: 28d4 84bf f3cc 90bf cc09 063f 19aa e73e
00000270: 5f88 85be 58f1 d3be 3131 8fbf 771e b23e
00000280: e2ca edbe 4b3f 93be 8504 48bf 6570 afbd
00000290: ab5d c5bf 93df 0dbf 1193 81bf 4991 99bf
000002a0: cdab 90be 772b 94be ae85 7d3e ada3 6abf
000002b0: 6ab8 82bf bf2b 983d 6e97 dc3d 7392 8bbf
000002c0: 9af3 843e ef27 b4bd 24d4 2cbf b259 9ebe
000002d0: 7176 24be 6123 96be a4ce 0cbf b9cc a5bf
000002e0: 3cd3 f8be 1dd3 10be 991e c9bc c993 a8bf
000002f0: 8f49 adbf 6cab dfbe 522c fbbe 80ad 18be
00000300: 9fae bf3c 591a 06bf d545 2b3e 9fc9 edbe
00000310: bc42 40bf 3887 58bf d3f8 3abf f518 d7be
-1.0501195 -1.0194818 -0.5593326 -0.8691561 -1.0535206 -0.8825502 -1.5203663 -0.56130064
-0.50392723 -0.5087499 -0.97301084 -1.1245942 -1.3514379 -0.5789068 -0.31766486 -0.40600005
-0.5998882 0.18720424 -0.52944046 -0.13969393 -1.176761 -0.8083137 -0.7076418 -0.8509467
-0.7514829 -0.8194884 -0.39722535 -0.88332415 -0.6174864 -0.26663977 -0.71523005 -0.7422175
-0.0058440855 -0.97178864 -1.0085932 -0.13493551 -0.36389694 -1.0010377 -0.67230886 0.046652023
-0.14880462 -1.1991355 -0.5137487 -0.9682158 -0.6991734 -0.9980523 -1.5260124 -0.6467371
-0.53826827 -0.9443893 -0.49013212 -1.1712803 -0.5471514 -0.3712311 -0.81099814 -0.9571574
-0.3992298 -0.8936853 -0.525753 -0.7965081 -1.0115945 -0.7253231 -0.4284276 -0.9971845
-0.3356572 -0.7231805 -0.47043797 -0.99470085 -1.0627369 -0.86364675 -1.0170895 -1.0695069
0.0637907 -0.33142364 -0.4712526 -0.5938869 -0.08901704 -0.6233653 -1.0426723 -0.8770306
0.050250247 -0.19553982 -0.14128265 -0.4334824 -0.7250201 -0.27672273 0.042465184 -1.322634
-1.2402687 -0.5285616 -0.5311642 -0.1666998 0.24481559 -0.7975058 -0.9921887 -1.1223378
-1.097671 -1.173722 -0.5276082 -1.0064985 -1.529365 -0.6385254 -0.86738473 -0.49757203
-1.2593447 -0.543803 -0.8859504 -0.6712697 0.16889393 -0.828168 -0.51416206 -0.2338947
-0.86783564 -0.74006474 -0.62769127 -1.3532252 -0.35537255 -0.5708189 0.1536888 0.05716632
-0.96073323 -1.2852124 -0.4704034 -0.757611 -0.7006857 -0.6143624 -0.7776126 -0.6296519
-0.93962574 -0.34156603 -1.1409067 -0.50052357 -0.25041616 -1.4126102 -0.83502203 -1.0440317
-0.9940228 -0.9727749 -0.8133434 -1.4889475 -0.31486633 -1.3750554 -0.82020044 -1.4997765
-0.535334 -0.36864972 0.37143117 -1.4537227 -0.5649612 -0.6523941 -0.3600667 0.37376308
-1.0377245 -1.1312546 0.523587 0.45246962 -0.26080605 -0.41395068 -1.1186887 0.34788868
-0.4644385 -0.28759226 -0.78131896 -0.085663594 -1.541921 -0.5541927 -1.0123006 -1.1997463
-0.28256074 -0.2893941 0.24758026 -0.91656 -1.0212529 0.07430219 0.107710704 -1.0904068
0.25967103 -0.08796679 -0.675112 -0.30927807 -0.16060807 -0.29323867 -0.5500281 -1.2953101
-0.4859866 -0.14143033 -0.024550723 -1.31701 -1.3538073 -0.43685472 -0.4905725 -0.14909935
0.023398696 -0.52383953 0.16725858 -0.46442887 -0.7510183 -0.8458133 -0.73035926 -0.42011228

fc2.weight f4 [150, 200]
00000000: 55e2 873d 3ee5 9d3e 11b3 283e cc29 a8bd
00000010: 2072 12bf 76b8 a1be bae6 25be 6521 e2be
00000020: a703 bbbd 0602 48bf 9b0b 693d cef8 f2be
00000030: f81e 083e da9b d03e 3fea 8ebe 3523 b8be
00000040: 0512 b63e 3db7 9cbf 95af 0ebe 11b7 433b
00000050: ae1c 813d 85ec 083e c198 1dbe fdbc 01bf
00000060: 3011 b2be da80 fbbe da1e 7bbe 1a84 d9be
00000070: 2afe 8e3e 9be3 9c3c f8e9 c7bc 1ab9 23bf
00000080: 388b fdbe 17da 1ebe f0b1 4fbd 1e44 f83d
00000090: bb96 6e3e 2e2f 033e a9cb 37bf 193d 50bf
000000a0: ce88 043e 669c 22be 1736 bc3e aea9 83be
000000b0: af85 c53d 6f26 483d f83f 4fbe 3e78 b5bc
000000c0: 6a3b 0abf acdb 813e c576 af3d 92d3 e0be
000000d0: bc34 073f c898 22bf e215 ba3e 8e46 f73c
000000e0: 97e1 14be 60e8 17be eb95 ffbd 84d0 9a3e
000000f0: 9c4d 47bf 2036 403f 103f f1be c249 a93e
00000100: ed20 d0bd 78af 093e a99b 7f3e 239c ad3e
00000110: ec7e 9abf 2cd1 81be a6d1 09be ff12 35bf
00000120: 5186 963e ee0b 383f 25ef 3f3f 38f5 113f
00000130: 3a91 273c c986 89be 1740 303e 2408 cf3d
00000140: 4494 30bc e406 c8be 5a40 a9bd 8a3c bf3d
00000150: 3c42 3c3d 9803 1e3f 672e 74bf a942 f7bd
00000160: afa8 3ebf 96ac ec3e cdf9 c7be 99a9 023f
00000170: 823e 68bf 2a6f f2be e1ad aebe f090 4e3e
00000180: 9eb4 a23e 3e21 c23d 8e47 2abf f3dd f63e
00000190: 2a2a 6f3e ea98 d53e 694a 09bf fe50 d8be
000001a0: 4ff1 003f 6e2a afbe 78c2 a73e dfe6 463e
000001b0: 52fa 643d d48b 15be 7eb7 0cbe 0688 6e3e
000001c0: e567 55be fc87 fcbe 1f84 c73e 2c94 923e
000001d0: 280a 9b3e 18ce 45bd 4c10 e23e 6bf7 123e
000001e0: b8f7 6abf f044 8f3e e9d5 10bf 7503 3c3f
000001f0: 60db 04bf 0c32 92be 930a a5bd c9c4 2cbf
00000200: 194e 1fbe 8a98 89bd 5a48 2cbe c84d 203f
00000210: 1921 013f 213b 34be a156 ad3e bac6 a6be
00000220: 6237 7dbf 6f5f 993f a1f8 8d3e 7f5e c7be
00000230: 1836 fe3e f8d9 943e 4931 093f a281 3b3f
00000240: 1d41 063f 85bd 8bbe b34e 29bf 4c3f 77bc
00000250: b0ba 81be e33f b5bf 48a5 ca3e 93d8 11bc
00000260: db4b 103f cc62 243f 3005 7ebf 51a0 23bf
00000270: e582 9f3e 328c a83e 72bc 18bf e681 91be
00000280: 8046 d23d 731f 8dbe 3d19 ea3e 2b3a 66bf
00000290: 3431 05be b759 56bf 1101 52be a988 553e
000002a0: 8b1e de3c 25a0 32bf 6e2f c1be 504d 0c3e
000002b0: cfe1 5bbf 5fab 4bbf 523c 9fbc b100 8e3e
000002c0: c501 d3be afd7 5d3e c3de a93d bb72 be3e
000002d0: 1473 a4be 54a5 6c3e 0ac8 0abe 7800 13bf
000002e0: ae49 ff3e 3e83 dbbe caa2 243e 812a 303e
000002f0: 42a5 5cbe ba4d ccbe b444 e9bd 0262 88be
00000300: c67e a9bd 553f 44bf 16f6 9e3d 8d64 cfbd
00000310: 7352 cd3d b83d 9fbe 6897 96bf b1d7 6fbe
00000320: 9537 54be c23d e53e b120 aebe 2195 27be
00000330: cac6 c93d b82a 9dbf 3ebf 253e 0dda a6be
00000340: b8da df3d 2d3d 833d d4a3 10bf e572 5dbe
00000350: ca7b 883e 1f03 d0be 060d dd3e 06e1 22bd
00000360: 0273 88be 548e ba3b c0d9 a83e a432 213e
00000370: ab2b abbe 50ed 9ebf bbe7 29bf c8b8 f03d
00000380: a811 14bf 1a54 07bf 29d9 08bf bdf3 9a3c
00000390: 595f 033f 46dc ce3e e3b0 8b3e 4ab8 de3e
000003a0: 1f4a 5dbe 208d 45bf 95d0 e93e d0ff c93d
000003b0: fef7 2a3e 9da2 a23e a94f 6dbe 4578 cc3c
000003c0: 8dc4 043f 04e6 46be 3c1b 68bd 5028 47bf
000003d0: 8f95 c5bd 83fb 393f 1d08 fabd 4af0 fa3d
000003e0: 3350 033c b3c2 70bf 6233 5bbe aa38 ea3d
000003f0: 7c3b 4c3e 97f2 4ebf 5b3e b8be 9356 4c3e
0.06634966 0.3083896 0.16474558 -0.08211097 -0.5720539 -0.31586045 -0.16201296 -0.44166103
-0.09131556 -0.7812809 0.056895833 -0.47455448 0.13293064 0.40743905 -0.2791309 -0.3596436
0.35560623 -1.224342 -0.13934167 0.0029863755 0.06304298 0.13371475 -0.15390302 -0.50679
-0.34778738 -0.49121743 -0.24523488 -0.42483598 0.27928287 0.0191515 -0.024403557 -0.6395432
-0.49520278 -0.15512882 -0.050706804 0.12122367 0.23299687 0.12810966 -0.71795136 -0.8134323
0.12942812 -0.15879974 0.36760017 -0.25715393 0.09644639 0.048864778 -0.20239246 -0.022152063
-0.5399691 0.2536291 0.08567575 -0.43911415 0.5281484 -0.63514376 0.3634482 0.03018501
-0.1453918 -0.14834738 -0.124797665 0.3023721 -0.778528 0.7508259 -0.47118425 0.33064085
-0.1016253 0.13445842 0.24961723 0.33908185 -1.2069983 -0.25354898 -0.13458881 -0.7073211
0.2939935 0.71893203 0.7497428 0.570148 0.010227496 -0.26860645 0.17211948 0.101089746
-0.010777537 -0.39067757 -0.08264227 0.09337719 0.045961604 0.61724234 -0.95383304 -0.12073261
-0.7447614 0.46225423 -0.3905777 0.51040035 -0.9072038 -0.47350436 -0.34117034 0.20172477
0.31778425 0.09478997 -0.66515434 0.4821621 0.23355928 0.41718227 -0.53629166 -0.42249292
0.5036821 -0.3421206 0.32765555 0.19424008 0.055902787 -0.14604121 -0.13741872 0.23294076
-0.20840414 -0.49322498 0.38967988 0.2862867 0.30281186 -0.04829225 0.4415306 0.14352195
-0.9178424 0.27982283 -0.565764 0.73442775 -0.5189724 -0.28553808 -0.080586575 -0.6748777
-0.15557136 -0.06718548 -0.16824475 0.62618685 0.5044113 -0.17600681 0.33855155 -0.3257349
-0.9891263 1.1982249 0.2772875 -0.38939282 0.49650645 0.29072547 0.5359083 0.7324468
0.52443105 -0.2729303 -0.6613571 -0.015090775 -0.25337744 -1.4160122 0.39579225 -0.008901733
0.56365746 0.6421325 -0.99226665 -0.639165 0.31154552 0.3291946 -0.59662545 -0.28419417
0.10267353 -0.27563056 0.4572238 -0.8993251 -0.13007051 -0.83730644 -0.2050822 0.20852913
0.027114173 -0.6977561 -0.37731498 0.13701367 -0.8589143 -0.79558367 -0.019437943 0.27734903
-0.41212288 0.21664308 0.082944416 0.37196907 -0.32119048 0.23109943 -0.13552871 -0.5742259
0.498609 -0.42873567 0.16077724 0.17203714 -0.21547416 -0.3990305 -0.11390057 -0.26637274
-0.08276133 -0.76659137 0.07761781 -0.101266004 0.100254916 -0.31101775 -1.1764956 -0.23422123
-0.20724328 0.4477368 -0.34009317 -0.16365482 0.09852369 -1.2278662 0.16186234 -0.32588235
0.10930389 0.06408153 -0.5649998 -0.2162586 0.26656944 -0.4062738 0.43174 -0.03976538
-0.26650244 0.0056932364 0.3297863 0.15741974 -0.33431754 -1.2416172 -0.6636922 0.11753994
-0.5783944 -0.52862704 -0.5345636 0.018915052 0.51317364 0.4040243 0.2728339 0.43499976
-0.21610306 -0.77168465 0.45666948 0.098632455 0.16696164 0.3176469 -0.23174919 0.024959693
0.5186241 -0.19423681 -0.056666598 -0.77795887 -0.09647667 0.726494 -0.12208579 0.12252863
0.008014726 -0.9404709 -0.2140632 0.11436589 0.19944566 -0.8083891 -0.35985073 0.199549

fc2.bias f4 [150]
00000000: edfb 8fbd b8df 13bf 6a7c 78bd 2b61 43bd
00000010: b8d7 83bd 06c5 0dbe 231b 96be 87b0 60bd
00000020: 2d9d dc3c c378 213d 7e59 cabb 1720 b2be
00000030: 0ef4 d9be 7402 d6bd 8b07 ba3d 02ea 0abe
00000040: 9ced 13bf 4354 91be fcb5 d7be 95b4 33bf
00000050: 7f46 15bf 0c63 e3be 70fa 23c0 3814 96bf
00000060: 4709 a73e 4012 38bf 154c 34be 419c 72be
00000070: 0285 b3be 07eb ddbd 47e5 1bbe df16 12bf
00000080: 4f9d 82bf 9da6 03bf 7d38 8fbe ac78 d3be
00000090: 678a 2bbf 5369 0ebd f35d 69bd 0875 07bf
000000a0: 3521 3dbe 19d6 9dbe 8b6c 29bf 72eb 9c3e
000000b0: c9e3 8fbd defa 14bf f2af 20be 1f6a 24be
000000c0: 6b0e bc3b 5bdf 9fbe 0130 18bf d083 403e
000000d0: 37e5 04bf cb79 1dbf 3d87 c6be 3536 23be
000000e0: cfee eebd 768f 6ebe 1732 3fbf 18fb f9bd
000000f0: 14f6 9bbd d395 48be e257 fcbe 1c1c f8be
00000100: fb7d aebe 9b72 643c ee3a 3bbf 90b5 253e
00000110: 2838 e6bd d3a5 b1be ea18 f8be 3081 f5be
00000120: 1f2f a4be 69d6 d7be dfda 47bf 3463 70be
00000130: 4372 0f3e 93c8 123e 6bb7 f7be 53e7 a03e
00000140: b4fd 843d 011a 1dbe dd57 0bbe 5fde 59be
00000150: 7281 c5be 30cc 3fbe b9e4 f6be e6ae 13bf
00000160: 2d7b cfbe f238 86be d8b8 e4bd e52f 14be
00000170: 4e0c d4be 290f 0d3d 6823 afba 8580 a7be
00000180: 9146 e2bd b5e0 13bf d69c 89be 30bc a93d
00000190: 94f6 aabf 3d28 83be 112b fa3c 97f2 3abf
000001a0: 8967 d73d 93e9 2dbf 596d 92be 9e23 92bf
000001b0: 331c 84bf 2db7 b7be 105a ddbe 2f48 1dbe
000001c0: 2e86 c7bd 792d 58be 7a4c 6fbf 0541 89be
000001d0: 74d0 f9bd e6ca a43e 831b 0dbe b480 d7bd
000001e0: 3bc3 73be d370 1fbf f227 a33d 4248 3ebe
000001f0: 3a1a a0bd 5406 03bf 4b33 17bf ec00 66bf
00000200: 7262 6ebf e7a8 39be 490c 1abe 86c4 28bf
00000210: 42f6 383e ae9d 4ebe f7f6 75bf eb27 07be
00000220: 8783 f4be 98ef 1cbe 8d9a bcbe 11e3 7bbe
00000230: cbd9 88be 2eaa dcbe e08a 02be cfe3 86bd
00000240: 4907 08bd a142 1cbd a76c 1fbe 6e3b eabd
00000250: b761 19bf 8bb1 6e3e
-0.07030473 -0.5776324 -0.060665525 -0.04770009 -0.064376295 -0.1384469 -0.2931758 -0.05485585
0.026930416 0.039421808 -0.006175219 -0.34790108 -0.4256901 -0.10449687 0.0908347 -0.1356583
-0.5778444 -0.283846 -0.4213103 -0.7019742 -0.58310694 -0.44411504 -2.5621605 -1.172492
0.32624266 -0.7190285 -0.17607148 -0.23692419 -0.35062414 -0.108358435 -0.15224181 -0.5706615
-1.0204257 -0.51426107 -0.27972785 -0.41303003 -0.6700806 -0.034768414 -0.056974363 -0.5291295
-0.18469699 -0.30827406 -0.6618125 0.3064838 -0.070258684 -0.5819529 -0.15692118 -0.16056107
0.0057390234 -0.31225094 -0.5944825 0.18800282 -0.51912254 -0.61513966 -0.38775054 -0.15938647
-0.11666643 -0.23296914 -0.74685806 -0.122060955 -0.07615295 -0.19588403 -0.492858 -0.48458946
-0.3408049 0.01394334 -0.73136795 0.16182542 -0.1124118 -0.34696826 -0.48456508 -0.47950125
-0.320672 -0.4215577 -0.78068346 -0.23475343 0.14008431 0.14334325 -0.48382124 0.31426486
0.064937025 -0.15341951 -0.13607736 -0.21276234 -0.3857532 -0.18730235 -0.48221377 -0.5768875
-0.40523663 -0.2621532 -0.11168069 -0.14471395 -0.41415638 0.034438286 -0.0013361992 -0.3271524
-0.11048616 -0.5776475 -0.2687747 0.08287847 -1.33565 -0.25616637 0.030538114 -0.7302641
0.10517795 -0.6793453 -0.2859905 -1.141712 -1.0321106 -0.3588194 -0.43232775 -0.15359567
-0.097423896 -0.21111096 -0.9347607 -0.26807418 -0.121979624 0.3218605 -0.13780026 -0.10522595
-0.23804943 -0.6228153 0.07966603 -0.18582252 -0.07817502 -0.5118153 -0.5906264 -0.89845157
-0.93118966 -0.18130837 -0.15043749 -0.6592487 0.1806269 -0.20177338 -0.96079963 -0.13198821
-0.47756597 -0.15325773 -0.36836663 -0.24598338 -0.26728663 -0.43098587 -0.12748289 -0.0658642
-0.033210073 -0.03814948 -0.15568791 -0.114371166 -0.59914726 0.23309915

fc3.weight f4 [4, 150]
00000000: 1b66 41be fe56 fbbe 17ff 02be e72c c43c
00000010: 1d54 333d 396e f43c e996 1ebd 98e5 453d
00000020: 803e 1d3e 5ae1 13bd bed6 1c3e 4fd5 c5be
00000030: 0a6d 383e 5abc 5bbd ddea 963d a706 75be
00000040: e884 e4bd 4d4e 42bf f519 253c 4760 0abe
00000050: a744 013d e37a 143f d8dd 1140 0275 60be
00000060: a734 c13d 99f1 ef3e 3cdc 0dbe 313a 3f3e
00000070: b8b1 4ebe 5a38 3a3d 223c bf3d 34d2 343e
00000080: 11c3 fd3e 06bd 6fbd a6da 443e 19f9 a3be
00000090: 1411 d0be e1f1 29bf b051 663c 864c 013b
000000a0: 9169 29be d2e4 f83d 7011 38be f30e 853e
000000b0: 558a 9537 9935 3dbf 9c14 55be 4504 083d
000000c0: 61c2 f6bc b0d6 0bbc 22a3 cf3f c029 143f
000000d0: fa98 0f3f afff 24bc ad93 29be a278 cf3e
000000e0: 76d0 403d 53ca 523d 5bdf 42be 2ed1 d43c
000000f0: a671 d03c 75c1 95bd 1944 383d c0e7 273e
00000100: 80f6 68bc befd b0bb cbb7 1a3f 5e8d e33d
00000110: ab82 ee3e 4269 d33d e5bb e03d b9a4 433f
00000120: dc14 72be 23da 943b 3d17 5f3f 1880 9f3f
00000130: c20f 2fbd 594a cf3d 6a64 7fbd fc45 d4be
00000140: a851 bebd be07 9dbd 3274 ccbe a03a 843e
00000150: c88d 4fbe c073 dabe 14cd 973e 0086 883e
00000160: df44 133e 18ac 2a3c 9c58 eabd b492 b83e
00000170: 903e 033e 04db 733d 302d 90bd e180 5abe
00000180: d271 f03e ce1f 9abd b133 2d3d 8445 37bd
00000190: e3b4 ad3d c8c0 cf3d f386 73bd 32bb f7bc
000001a0: dfdc 65be 7b44 bfbe ed52 8dbe c2b0 aebe
000001b0: 7424 dd3d 85db c9bc 7841 fabd 33b3 a4be
000001c0: d46b 71bd 7039 60bd 4e5d 2b3e b807 a7bd
000001d0: 4c3b f8bd 91c1 e2bc bd29 4f3d 948b eabe
000001e0: a410 0b3c 4067 bd3e 3e6b 1e3f b46c 413d
000001f0: 28cd 3f3d 5b44 3d3f a752 e93d aaf6 82be
00000200: 7363 693e b268 f8be 1a91 a73d f4f1 503f
00000210: 87f5 acbd 3f83 94bd b1f8 b8be 710e 55bc
00000220: f2a8 823e 96cc 21bf c5b4 f63d bcaa e03d
00000230: 53a9 133e 49b6 d6bd 6e93 a33d 47b3 6d3c
00000240: c42d 01bc cfb9 093f 2f8d 55bd 1d38 2f3d
00000250: 42c1 ebbe 65d9 803e d95b d53d 3339 a63e
00000260: ae18 b23d f4ca 9c3c 858d 7ebd 568e 17bd
00000270: fcb3 f9bc 48da 8bbc 7313 15bf 4c22 363d
00000280: 69bd ce3d 70c2 0f3e 7bdf 21be 8a93 513e
00000290: b378 44be a4e3 8f3b b4c0 40bf d66f 003f
000002a0: 45c8 52bd 1bc6 fc3d b9a4 ae3d 21fe 45bd
000002b0: 2f79 d3be 14ad 2f3d 9360 d73e 66ee 70bf
000002c0: 3b14 bb3c d71e debe 7e1a a43d 73cb 35bd
000002d0: 8217 a7bd 9cfe 36be 2853 91be 30a3 853d
000002e0: 44eb 21be 61ff 433e 8063 0ebf 234d 8fbe
000002f0: e798 0dbd 7c81 c7be e289 9f3e 185a a3be
00000300: 7c8c dc3b e089 943e e934 783c b304 5fbe
00000310: ad34 6e3d cd54 3f3e 2d65 0abd 3df0 fd3e
00000320: 0b3f c6bf 32b9 f03e bd97 c0bf 1b18 d3be
00000330: df52 3e3d e874 73be 7b80 8f3f 5b4d 4cbd
00000340: 63fd ba3d 726d 8a3c 07ec 59bc 34b1 5dbc
00000350: b05b c8bc 26ee 02be 8ce7 283c 0a31 223d
00000360: 2176 8d3e a14b cebd d817 2dbe 7f6a 97bd
00000370: 26ca 863f 143e 5e3e 230a d6bd b930 df3c
00000380: e01c 913d b9f6 35bf 8d11 143e 4dff a8be
00000390: f007 9c3a 9a46 0e3e 5e5a a6bc dd47 49bc
000003a0: 1989 6cbd b18c 883d 7b7a a43f d082 ac3e
000003b0: 4340 4fbe b45d 0cbd 6aef b6bb b343 3e3d
000003c0: d7cd 223e e8ac af3d a8df 04be 7579 783e
000003d0: 3e07 38bd b262 12be 826a dfbe 24ed 5c3e
000003e0: 9b71 cc3d e53d 96bc b4a1 fe3e 1dfb 20bd
000003f0: 2430 05be 37d1 2f3f ec24 c63e 0353 11be
-0.18886606 -0.49089807 -0.12792622 0.023947192 0.04378139 0.029837715 -0.038718138 0.04831466
0.15355873 -0.036103584 0.15316293 -0.38639304 0.18010345 -0.053646423 0.07369015 -0.23928319
-0.11158162 -0.7590073 0.010076989 -0.1351329 0.031559613 0.5800001 2.2791653 -0.21919635
0.09433871 0.46864012 -0.13853544 0.18674542 -0.20184982 0.045463897 0.09337641 0.17658311
0.49562886 -0.058529876 0.19224033 -0.32025984 -0.4063803 -0.663847 0.014057562 0.001972945
-0.16544177 0.12153019 -0.17975402 0.25987968 1.78266e-05 -0.7390991 -0.20808643 0.033207197
-0.030121984 -0.008535072 1.6221659 0.57876205 0.560928 -0.010070725 -0.1656024 0.40521723
0.047073804 0.051462483 -0.19030516 0.02597865 0.025444817 -0.073122896 0.044986818 0.16397
-0.014218926 -0.005401342 0.60436696 0.11110948 0.46584067 0.10322811 0.10973338 0.7642322
-0.2364077 0.0045426055 0.87144834 1.2460966 -0.042739637 0.101216026 -0.06235162 -0.41459644
-0.092929184 -0.07667492 -0.399324 0.25825977 -0.20268929 -0.42666435 0.2964865 0.26664734
0.14381741 0.010417007 -0.11442682 0.36049426 0.12816834 0.05953504 -0.07039869 -0.21338226
0.46961838 -0.075255975 0.042285625 -0.04474403 0.08481767 0.10144192 -0.05945487 -0.030240629
-0.22447537 -0.37356934 -0.2760233 -0.3411923 0.107979685 -0.024640808 -0.122195184 -0.32167968
-0.058940724 -0.054742277 0.16734812 -0.08155769 -0.12120685 -0.02768019 0.050576914 -0.45809615
0.008487854 0.36992836 0.6188239 0.047222808 0.04682651 0.7393243 0.11392718 -0.25578815
0.22791843 -0.48517376 0.08181973 0.8161919 -0.08445268 -0.07251596 -0.36127236 -0.013003931
0.2551952 -0.632028 0.12046198 0.10970065 0.14420061 -0.10483987 0.07987104 0.014508075
-0.0078844465 0.53799146 -0.052136596 0.042778123 -0.46045882 0.2516586 0.10417909 0.32465515
0.086961135 0.019139744 -0.062146682 -0.037000977 -0.030481331 -0.017071858 -0.582328 0.0444663
0.10094721 0.14039016 -0.15807907 0.20466438 -0.19186668 0.0043911505 -0.7529404 0.5017065
-0.051460523 0.12342473 0.08527512 -0.04833806 -0.41303393 0.04288967 0.42065868 -0.9411377
0.022836795 -0.43382904 0.080128655 -0.044383477 -0.08158781 -0.17870563 -0.28383756 0.06525266
-0.15812403 0.19140388 -0.55620575 -0.27988538 -0.034569647 -0.38965976 0.31159884 -0.31904674
0.006730614 0.2901144 0.0151493335 -0.21779136 0.058155704 0.18684693 -0.033787895 0.4959735
-1.5487989 0.47016293 -1.5046307 -0.4122933 0.04646575 -0.23775065 1.1211084 -0.04987846
0.09130361 0.01689789 -0.013300902 -0.013531018 -0.024457783 -0.12786159 0.010309111 0.03959755
0.27629188 -0.10073019 -0.16903627 -0.073933594 1.0530441 0.21703368 -0.10451152 0.027244912
0.070855856 -0.71079594 0.1445982 -0.3300728 0.0011904221 0.1389412 -0.020306762 -0.0122852
-0.057747934 0.0666746 1.2849878 0.33693552 -0.20239358 -0.03426905 -0.0055827396 0.04645128
0.15898834 0.08577901 -0.12975943 0.24265082 -0.04492878 -0.14295462 -0.43635947 0.21574837
0.09982606 -0.01834006 0.49732745 -0.03930198 -0.13006645 0.6867861 0.38700044 -0.14191823

fc3.bias f4 [4]
00000000: 2899 8f3d 625e 8c3d 34dc fcbd c587 113f
0.07011634 0.068539396 -0.12346688 0.5684779
