good_enough_critic_weights.pth (torch_old, 542541 bytes, 5 tensors)

fc1.weight f4 [400, 33]
0	0xbeddbbad	-0.43307248
1	0x3f1b24c3	0.6060297
2	0xbf63c97d	-0.8897932
3	0xbf31bb23	-0.6942617
4	0x3e9cded5	0.30638757
5	0xbece73f9	-0.40322855
6	0x3d578fa4	0.05262722
7	0x3cdbf969	0.026852326
8	0x3d9f3313	0.077734135
9	0x3ee9fc44	0.45700276
10	0xbe2e6e12	-0.17034176
11	0xbb03caed	-0.0020109967
12	0xbe254bb1	-0.16142155
13	0xbdbd1e12	-0.09234251
14	0x3da2b750	0.0794512
15	0x3eabc4f7	0.3354871
16	0xbe047c84	-0.12938124
17	0x3d1f10a9	0.038834248
18	0x3e57dc41	0.21080114
19	0xbe3548aa	-0.177035
20	0xbd84d831	-0.06486548
21	0xbd447944	-0.04796721
22	0xbc8f7b14	-0.017514743
23	0x3d08eb8c	0.03342776
24	0xbd817fbf	-0.06323194
25	0xbdc95242	-0.098301426
26	0x3eae23fb	0.34011826
27	0x3f3d173e	0.7386359
28	0x3d4fc64f	0.05072623
29	0xbc8dcac0	-0.017308593
30	0xbf513b92	-0.8173152
31	0x3d0ed298	0.034868807
32	0x3fc79933	1.5593628
33	0xbe99b059	-0.30017355
34	0x3eb96ccc	0.36215818
35	0x3e828353	0.25490817
36	0x3dc2e987	0.09517198
37	0x3eb859f3	0.36006126
38	0xbe3afc61	-0.18260337
39	0x3e6c0d47	0.2305194
40	0x3d75be33	0.05999584
41	0xbe2cc3ff	-0.16871642
42	0x3d914dd7	0.07094925
43	0x3da74b1e	0.08168624
44	0x3e6b5eb0	0.22985339
45	0xbe0d3908	-0.13791287
46	0xbd7e9266	-0.062151335
47	0xbe0c6b2f	-0.13712762
48	0xbc954fb9	-0.018226491
49	0x3f2bc796	0.6710142
50	0x3ece6b07	0.4031603
51	0xbe399227	-0.18122159
52	0xbeb5766b	-0.35441908
53	0xbd849c1a	-0.064750865
54	0x3d062747	0.0327523
55	0xbc589d90	-0.01322116
56	0x3ba18e2f	0.0049302797
57	0x3e6a8428	0.22901976
58	0x3d5fab39	0.05460665
59	0xbcf7c63c	-0.030245893
60	0x3fe25d59	1.7684737
61	0xbd6ed54e	-0.058308892
62	0x3dc4e42c	0.09613833
63	0xbfe815e1	-1.8131677
64	0xbe242b95	-0.1603225
65	0xbd835dcd	-0.064143755
66	0xbc64ae9a	-0.013957644
67	0xbe42a6bc	-0.19008917
68	0x3e7b84b1	0.24562337
69	0xbee43d29	-0.44577911
70	0xbdff0ccc	-0.12453613
71	0xbed5872b	-0.41704687
72	0x3e7c9ca4	0.24669129
73	0xbd8bf226	-0.068332955
74	0x3f0a6712	0.5406352
75	0x3eabfd85	0.33591858
76	0xbd023faa	-0.031798996
77	0x3e6f9325	0.23395975
78	0xbeb6ac10	-0.35678148
79	0xbcd04007	-0.025421156
80	0x3e2f0f82	0.1709576
81	0xbec55ab2	-0.38545758
82	0xbec9bafc	-0.3940047
83	0x3e286f2f	0.16448663
84	0x3ede96a2	0.434743
85	0x3f01e86b	0.50745267
86	0x3e881a7d	0.2658271
87	0x3bd8543f	0.00660184
88	0xbe9f4862	-0.3110991
89	0xbde8ab9f	-0.11360859
90	0x3d23f4a9	0.040028248
91	0x3d2d6f96	0.042342745
92	0x3e19b799	0.15011443
93	0x3fa35f13	1.2763389
94	0x3e3ffd35	0.18748935
95	0xbd9386b4	-0.07203427
96	0xbf98fd51	-1.1952306
97	0xbdb32eb4	-0.08749142
98	0xbdab4d24	-0.08364323
99	0x3e255437	0.16145407
100	0xbec59b7f	-0.38595197
101	0xbe58a28a	-0.21155754
102	0xbe4f3bd8	-0.20237672
103	0xbe7c34d2	-0.24629524
104	0x3eb0e8f2	0.34552723
105	0x3f0bf0c0	0.5466423
106	0x3de5aa8f	0.11214172
107	0x3e38b003	0.18035893
108	0xbe3cab10	-0.1842463
109	0x3da98f92	0.08279337
110	0xbe78fa63	-0.24314265
111	0x3de0e127	0.109804444
112	0xbd23949e	-0.039936654
113	0x3ea11119	0.31458357
114	0xbe397738	-0.18111885
115	0x3d73ffe8	0.059570223
116	0xbb1b385a	-0.0023684711
117	0x3e61cfca	0.22051921
118	0xbd233690	-0.039846957
119	0xbeaa330a	-0.33242065
120	0xbe753dec	-0.23949403
121	0x3e44f6b6	0.19234738
122	0xbe13e288	-0.14441884
123	0x3daf6c08	0.08565527
124	0x3bb38737	0.0054787653
125	0xbd163f6d	-0.03668158
126	0x3f6d0c22	0.9259664
127	0x3ed90c3c	0.42392147
128	0x3d8b545e	0.06803201
129	0xbf803d0e	-1.0018632
130	0x3e0d6dcc	0.13811415
131	0xbe0a17ab	-0.13485591
132	0xbd5b4628	-0.053533703
133	0x3e2488e1	0.1606784
134	0x3e5a0e61	0.21294548
135	0xbebe9cee	-0.37229103
136	0xbe29964e	-0.16561243
137	0xbe0862d7	-0.13318954
138	0xbd3da6ec	-0.046301767
139	0xbd37c87b	-0.044868927
140	0xbdd4ee63	-0.10397031
141	0x3f0597f2	0.52184975
142	0xbe543aed	-0.20725603
143	0x3de32601	0.11091233
144	0x3cc343f3	0.023836112
145	0x3c22b7b4	0.009931494
146	0xbd5a3b64	-0.053279296
147	0xbe84789b	-0.25873265
148	0xbe92b948	-0.28656983
149	0xbe393f88	-0.18090641
150	0x3e0469ca	0.1293098
151	0x3e04b0b0	0.12958026
152	0xbe530758	-0.2060827
153	0x3db7ed98	0.08980864
154	0xbd83b8a4	-0.06431702
155	0x3cc41ea2	0.023940388
156	0x3dfbe1d2	0.12298931
157	0x3e340702	0.17580798
158	0xbc1bd27f	-0.009510635
159	0x3e97e129	0.2966397
160	0x3e619b9c	0.22032017
161	0x3dbbe0cc	0.09173736
162	0xbd1a6ecb	-0.037703317
163	0x3e0b5152	0.1360524
164	0xbd26b17e	-0.040696613
165	0x3f1c4af1	0.6105185
166	0xbe066de9	-0.13127865
167	0xbf4261d0	-0.759305
168	0x3e441e7d	0.19152255
169	0xbdcc8044	-0.09985402
170	0x3ed9d83d	0.4254779
171	0xbf077a47	-0.52920955
172	0xbdff4b74	-0.124655634
173	0x3ead54e3	0.33853826
174	0x3bc98b6c	0.0061506536
175	0x3b0cc20b	0.0021477963
176	0xbcfe9cef	-0.031080691
177	0xbdf6d260	-0.120518446
178	0xbf1f37bd	-0.62194425
179	0xbe0442ed	-0.12916155
180	0x3ea32ae2	0.31868654
181	0xbc150047	-0.009094304
182	0x3a1bd2f8	0.00059442176
183	0xbdbf20c6	-0.09332423
184	0x3cce17de	0.025157865
185	0xbd8f2735	-0.069899
186	0xbddbb0e1	-0.10727096
187	0x3b7da4f0	0.0038703047
188	0xbe9961a9	-0.2995732
189	0xbc6ff541	-0.014645875
190	0xbda3afa4	-0.07992485
191	0x3e181531	0.14851834
192	0x3f95ddf7	1.1708363
193	0x3e3ab46d	0.1823289
194	0xbc15d8a0	-0.009145886
195	0xbfbb713d	-1.4643933
196	0xbd42d378	-0.047564954
197	0x3f0aca3a	0.54214823
198	0xbe8fe571	-0.28104737
199	0x3f40759f	0.75179476
200	0x3f2c900c	0.674073
201	0xbe6d2bc0	-0.2316122
202	0xbf21ac5c	-0.63153625
203	0xbd4b4c7a	-0.04963348
204	0xbe89b469	-0.26895455
205	0x3c6a9f8d	0.014320266
206	0x3e9a3f0a	0.3012622
207	0x3e14328a	0.14472404
208	0xbeab3656	-0.33439893
209	0x3e2d6726	0.1693388
210	0x3e95b161	0.29236892
211	0x3ee194cf	0.44058844
212	0x3d91649a	0.07099266
213	0x3e2d7342	0.16938499
214	0xbef68692	-0.48149544
215	0xbd736389	-0.059421096
216	0x3f123223	0.5710775
217	0x3b11b979	0.0022235794
218	0x3cb99d6f	0.022658078
219	0x3dd36890	0.10322678
220	0xbd57d3f6	-0.052692376
221	0x3d3c9fed	0.046050955
222	0x3e5efb50	0.21775556
223	0xbc2ffcec	-0.010741454
224	0x3e31fc95	0.17381509
225	0x3f38ba01	0.7215882
226	0xbdab0564	-0.083506376
227	0x3df7d84c	0.12101802
228	0xbf303361	-0.688284
229	0xbd7ae2e8	-0.06125155
230	0x3e5abf04	0.21361929
231	0xbe2098ec	-0.15683335
232	0xbe9cb004	-0.3060304
233	0xbdda3c51	-0.10656036
234	0x3e3933ab	0.18086116
235	0xbd1fda8e	-0.03902679
236	0x3ea15176	0.31507462
237	0xbe8b3f6d	-0.27196828
238	0xbd21f94a	-0.03954438
239	0x3de2d4c8	0.11075741
240	0x3c773905	0.015089278
241	0xbd6bb005	-0.057540912
242	0xbd42abda	-0.04752717
243	0xbcb345b8	-0.02188383
244	0x3cebe024	0.028793402
245	0x3e32fc61	0.17479087
246	0xbd0081b7	-0.031373706
247	0xbd772eb5	-0.060347278
248	0xbe1b2f09	-0.15154661
249	0x3cb91e14	0.02259735
250	0xbd95f42a	-0.07321961
251	0x3c0ba6ba	0.008523637
252	0xbcaffaf3	-0.021481967
253	0x3c9cf33f	0.019158958
254	0xbd5a40a8	-0.053284317
255	0x36789c80	3.7045975e-06

fc1.bias f4 [400]
0	0xbf6eb3c4	-0.9324305
1	0xbfe0113f	-1.7505263
2	0xbf891d29	-1.0712024
3	0xbf612cc6	-0.87958944
4	0xbd586821	-0.05283368
5	0xbf9ce7bb	-1.2258219
6	0xbf5bd639	-0.8587375
7	0xbf3d3174	-0.73903584
8	0xbf42d76b	-0.7610995
9	0xbf9cbe09	-1.2245494
10	0xbf7ed73e	-0.99547184
11	0xbfe399c6	-1.7781303
12	0xbfa6fc38	-1.3045721
13	0xbf3a5f76	-0.7280191
14	0xbf506190	-0.8139887
15	0xbfa00804	-1.2502446
16	0xbf877530	-1.0582638
17	0xbeb92d25	-0.36167255
18	0xbfa0d763	-1.2565731
19	0xbf96153e	-1.1725233
20	0xbf1aaf0a	-0.6042334
21	0xbf1ae2fd	-0.60502607
22	0xbf9555ce	-1.166681
23	0xbfa579d5	-1.2927805
24	0xbfb9b7f0	-1.4509258
25	0xbf7cfc0c	-0.98822093
26	0xbf330b48	-0.6993909
27	0xbf8bdb66	-1.092633
28	0xbfa53c17	-1.2908963
29	0xbf6a2717	-0.91465896
30	0xbecfca49	-0.4058402
31	0xbebc60a6	-0.36792487
32	0xbf79bf3b	-0.9755742
33	0xbfa39237	-1.2778996
34	0xbf9b8f1a	-1.2153046
35	0xbf91ed4b	-1.1400541
36	0xbf254df9	-0.645721
37	0xbf629d41	-0.885212
38	0xbf803203	-1.0015262
39	0xbf8c4bc9	-1.0960628
40	0xbf5ff4c7	-0.87482876
41	0xbfb63f64	-1.4238095
42	0xbe4c0f76	-0.19927773
43	0xbf9c4d22	-1.2211039
44	0xbfb608cf	-1.4221438
45	0xbf06205d	-0.5239313
46	0xbf39dc3b	-0.7260167
47	0xbfe124d8	-1.7589369
48	0xbf9e8e7d	-1.2387234
49	0xbf089d38	-0.53364897
50	0xbf8906c9	-1.0705196
51	0xbf4a444f	-0.7901048
52	0xbf669a20	-0.90078926
53	0xbf8919e9	-1.0711032
54	0xbf315e7b	-0.6928479
55	0xbf7d2f7b	-0.98900574
56	0xbfc89a98	-1.5672178
57	0xbfda1a99	-1.7039367
58	0xbfbc8a63	-1.4729732
59	0xbfad00c0	-1.3515854
60	0xbfa382a6	-1.2774246
61	0xbe9e9884	-0.30975735
62	0xbf8b1f42	-1.0868914
63	0xbfa0dd62	-1.2567561
64	0xbf8ce80e	-1.1008317
65	0xbf9be55c	-1.217937
66	0xbfc35a6f	-1.5261973
67	0xbf982ded	-1.1889015
68	0xbf5d449d	-0.8643282
69	0xbfb17a13	-1.3865379
70	0xbf729cc6	-0.9477047
71	0xbed6e083	-0.41968164
72	0xbf4610a0	-0.7736912
73	0xbfa22260	-1.266674
74	0xbf6a0b1d	-0.9142321
75	0xbf1931fd	-0.598419
76	0xbf473713	-0.7781841
77	0xbf978031	-1.1835996
78	0xbfa45fdf	-1.2841758
79	0xbfd9cd3e	-1.701576
80	0xbf29099b	-0.6603028
81	0xbfd74d3d	-1.6820446
82	0xbf1ec00f	-0.6201181
83	0xbf74ad13	-0.9557659
84	0xbf63eed0	-0.89036274
85	0xbf70ecbe	-0.9411124
86	0xbfcfc1ea	-1.6231053
87	0xbf0941ee	-0.53616226
88	0xbf251f7c	-0.64501166
89	0xbf8c7dc5	-1.0975882
90	0xbfad695e	-1.354778
91	0xbfa191f4	-1.2622666
92	0xbf609e7c	-0.8774183
93	0xbf7f7b64	-0.99797654
94	0xbf96744f	-1.1754245
95	0xbea866e0	-0.32890987
96	0xbff11dc5	-1.883721
97	0xbf983e19	-1.1893951
98	0xbf902c4d	-1.126352
99	0xbf8e4927	-1.1116074
100	0xbf48378f	-0.78209776
101	0x3dac2000	0.08404541
102	0xbf00f3cd	-0.5037201
103	0xbf245d5d	-0.6420496
104	0xbec0df96	-0.37670583
105	0xbfc772d8	-1.5581923
106	0xbf61de2e	-0.88229644
107	0xbfba9057	-1.4575299
108	0xbf0c1834	-0.5472443
109	0xbf5e4d6d	-0.8683689
110	0xbf9a3d1d	-1.20499
111	0xbf7aae19	-0.979219
112	0xbfa3bb2a	-1.2791493
113	0xbf944a86	-1.1585243
114	0xbf701f9d	-0.9379824
115	0xbf32f9fd	-0.699127
116	0xbf4a7bdf	-0.7909526
117	0xbfb9b69e	-1.4508855
118	0xbf2974df	-0.66193956
119	0xbf469102	-0.77565014
120	0xbfaa4f4e	-1.3305452
121	0xbf85958c	-1.0436263
122	0x3eac198f	0.3361325
123	0xbf8f594e	-1.1199129
124	0xbf84d253	-1.0376686
125	0xbfdeec3a	-1.7415841
126	0xbf63b57b	-0.8894879
127	0xbf3b736e	-0.73223007
128	0xbf9e0ef1	-1.234831
129	0xbf149b76	-0.58049715
130	0xbf811a68	-1.0086184
131	0xbfaadb8e	-1.3348253
132	0xbf458ac8	-0.7716489
133	0xbf8d8f9e	-1.1059453
134	0xbfe9e8ea	-1.8274205
135	0xbffcf879	-1.9763328
136	0xbf98faa0	-1.1951485
137	0xbfd578e7	-1.6677521
138	0xbf39ef6c	-0.72630954
139	0x3e779908	0.2417947
140	0xbf61d7ba	-0.882198
141	0xbec0c036	-0.37646645
142	0xbfe06f94	-1.7534051
143	0xbf6cd76e	-0.9251622
144	0xbfd90a1e	-1.6956213
145	0xbfa844fd	-1.3146054
146	0xbfc9ecf8	-1.5775442
147	0xbf51f530	-0.8201475
148	0xbf8c5e01	-1.0966188
149	0xbfc5e32f	-1.5459956
150	0xbf47a7c6	-0.77990377
151	0xbfd299b8	-1.6453161
152	0xbfcce727	-1.6008042
153	0xbf603a78	-0.87589216
154	0xbf627c0a	-0.8847052
155	0xbf83afbe	-1.0288007
156	0xbf565b2e	-0.8373288
157	0xbef764ec	-0.48319185
158	0xbfc9cdfe	-1.5765989
159	0xbfaaefad	-1.3354393
160	0xbeeaa01b	-0.45825276
161	0xbf4b7070	-0.7946844
162	0xbfa9ace9	-1.3255893
163	0xbfe5a68e	-1.7941453
164	0xbf5002d5	-0.8125432
165	0xbf81431a	-1.0098603
166	0xbf36078b	-0.7110526
167	0xbf19d142	-0.6008493
168	0xbf5258fe	-0.8216704
169	0xbf9df01d	-1.2338902
170	0xbf8c7c2d	-1.0975395
171	0xbfafe9d9	-1.374324
172	0xbe9d891c	-0.3076867
173	0xbf9213e1	-1.1412317
174	0xbeebf742	-0.4608708
175	0xbf15cacf	-0.58512586
176	0xbff174fc	-1.8863826
177	0xbf9ec60a	-1.2404187
178	0xbf98cc8b	-1.1937422
179	0xbfa22858	-1.2668562
180	0xbfab8e13	-1.3402733
181	0xbfa75197	-1.3071774
182	0xbf0b8b81	-0.5450974
183	0xbf809dee	-1.0048196
184	0xbf3c6cb1	-0.7360335
185	0xbfafe70b	-1.3742384
186	0xbeb89e49	-0.36058262
187	0xbf994b90	-1.1976185
188	0xbf439113	-0.7639324
189	0xbf4878db	-0.7830941
190	0xbf1454a5	-0.5794166
191	0xbf5c563d	-0.8606909
192	0x3f94f981	1.1638643
193	0xbf22f1f3	-0.63650435
194	0xbf11a299	-0.5688873
195	0xbf949d3a	-1.1610482
196	0xbf89f8df	-1.0779074
197	0xbf88c3db	-1.068477
198	0xbfdab585	-1.7086645
199	0xbef65290	-0.48109865
200	0xbec33d87	-0.3813288
201	0xbfc7422c	-1.5567069
202	0xbf507335	-0.8142579
203	0xbf7db9ea	-0.9911181
204	0xbe6459af	-0.22299837
205	0xbfac59c6	-1.3464897
206	0xbe7a03a1	-0.24415447
207	0xbf7edeef	-0.9955892
208	0xbf9cd286	-1.2251747
209	0xbf8b6223	-1.0889324
210	0xbe1efb31	-0.1552551
211	0xbef00d70	-0.46885252
212	0xbf1f7b9d	-0.62297994
213	0xbf66986c	-0.9007633
214	0xbf8fc19d	-1.1230961
215	0xbf4b9d67	-0.7953705
216	0xbf1f2790	-0.6216974
217	0xbfbfabfe	-1.4974363
218	0xbf4080bb	-0.7519643
219	0xbfca4cb2	-1.5804656
220	0xbf8a96fe	-1.0827329
221	0xbf7748df	-0.9659557
222	0xbf4ab4fa	-0.791824
223	0xbf995122	-1.1977885
224	0xbf85e016	-1.0459011
225	0xbf54b97c	-0.83095527
226	0xbee4d72c	-0.44695413
227	0xbf972f47	-1.1811303
228	0xbf52bfc2	-0.8232385
229	0xbe8007f4	-0.25006068
230	0xbfa2f0a8	-1.2729692
231	0xbfcd6339	-1.6045905
232	0xbf19ecd4	-0.60126996
233	0xbf1b5820	-0.60681343
234	0xbf9c6ef0	-1.2221355
235	0xbfbcbe91	-1.4745656
236	0xbf8c9349	-1.0982448
237	0x3d59ab04	0.05314161
238	0xbf948aea	-1.1604893
239	0xbfec979e	-1.848377
240	0xbf700f21	-0.93773085
241	0xbffe1711	-1.9850789
242	0xbf0e29bb	-0.55532426
243	0xbfbf112b	-1.4927114
244	0xbfb164fc	-1.3858943
245	0xbfa9ff0c	-1.3280959
246	0xbf86ead4	-1.0540414
247	0xbf262a49	-0.6490827
248	0xbeef35da	-0.46720773
249	0xbfd1bada	-1.6385148
250	0xbf9959c8	-1.1980524
251	0xbf70e378	-0.9409709
252	0xbf7bf080	-0.9841385
253	0xbf8ca19c	-1.0986819
254	0xbf174268	-0.590857
255	0xbfb5e7e3	-1.4211391

fc2.weight f4 [300, 404]
0	0x3cf4b27d	0.029870266
1	0xbcfc409c	-0.030792527
2	0x3ce92efa	0.028464783
3	0x3b0c85ea	0.0021442124
4	0xbd4f9f58	-0.05068907
5	0xbd27d05f	-0.040970203
6	0xbd686208	-0.056734115
7	0xbce6b80b	-0.02816393
8	0xbc8eab09	-0.01741554
9	0xbd509c48	-0.05093029
10	0xbcea0d59	-0.028570818
11	0xbbe48eb1	-0.006975018
12	0xbdc85132	-0.09781112
13	0xbca11dfd	-0.01966762
14	0xbd773f15	-0.060362894
15	0x3d0a595c	0.033776626
16	0xbd53d84b	-0.051719945
17	0xbd0550b2	-0.03254766
18	0xbd054a09	-0.03254131
19	0xbcb40865	-0.02197666
20	0xbd43d6c2	-0.04781223
21	0xbd4bc94a	-0.04975251
22	0xbbcc3357	-0.006231706
23	0xbba4f747	-0.0050343606
24	0x3bc983f7	0.0061497646
25	0x3cc22d1d	0.023703152
26	0xbb956a0f	-0.0045597623
27	0xbc90b249	-0.017663138
28	0x3d0e621b	0.03476153
29	0xbd526029	-0.051361237
30	0x3c1dce98	0.009631775
31	0xbd72db18	-0.059290975
32	0xbc842c76	-0.016134482
33	0x3c0015b9	0.007817679
34	0xbd18595d	-0.0371946
35	0x3c161634	0.009160567
36	0xbe022462	-0.12709191
37	0xbcc8ed64	-0.02452726
38	0xbd3bbae6	-0.045832537
39	0x3c299e95	0.01035275
40	0xbd450b82	-0.048106678
41	0x3d215f98	0.039397806
42	0xbbd4b645	-0.006491455
43	0xbd66c55d	-0.056340564
44	0x3c14a69b	0.009072925
45	0x3d1beb3a	0.038066126
46	0x3cea182b	0.028575977
47	0xbd96581b	-0.073410235
48	0xbd2dcb8e	-0.042430453
49	0x3d3e4f85	0.046462554
50	0xbcbdf1dd	-0.023186618
51	0x3c3b3da0	0.011428267
52	0xbcba9ddb	-0.02278035
53	0xbc4764d4	-0.012170035
54	0xbcea4f8c	-0.028602384
55	0x3cdb912c	0.026802622
56	0xbcd27cae	-0.025694218
57	0xbc26035f	-0.01013264
58	0xbc8e192f	-0.017345993
59	0x3d21ba2e	0.039484195
60	0xbd57cc0e	-0.052684836
61	0x3b3149bd	0.0027052008
62	0xbd8e0831	-0.06935156
63	0xbd027b0b	-0.031855624
64	0xbcd169b3	-0.025563097
65	0xbd912116	-0.07086389
66	0x3c9f0fa0	0.01941663
67	0xbc3ced52	-0.011531191
68	0xbcd5fc9e	-0.026121434
69	0xbd30a2a1	-0.043123845
70	0xbcf59f78	-0.029983267
71	0x3d81b974	0.063342005
72	0xbd6f95f4	-0.058492616
73	0x3c2b9445	0.010472362
74	0xbc8cda0d	-0.017193818
75	0xbbfdcb58	-0.0077451877
76	0xbd6e6bbb	-0.05820821
77	0x3c938de0	0.018011987
78	0xbc6790a7	-0.014133609
79	0xbcf85fbe	-0.030319091
80	0xbc592bee	-0.013255103
81	0x3ca62782	0.02028251
82	0xbc1e6534	-0.009667683
83	0xbd691884	-0.056908146
84	0xbc989f1f	-0.018630562
85	0xbd689828	-0.056785733
86	0x3c894c07	0.016759885
87	0xbd4ec63e	-0.050482027
88	0xbcb869cf	-0.022511391
89	0x3c0f1216	0.008732339
90	0xbd35ece4	-0.04441537
91	0xbd84ec59	-0.06490392
92	0x3cd00f40	0.025397897
93	0xbceb8251	-0.028748663
94	0x3bc6148b	0.0060449294
95	0xbd589f27	-0.052886155
96	0xbc9cb731	-0.019130321
97	0x3d4cea32	0.050028034
98	0xbd98ffd5	-0.07470671
99	0xbc21a556	-0.009866079
100	0x3c3ec411	0.011643426
101	0xbc97ae80	-0.018515825
102	0xbd0865b4	-0.033300117
103	0xbcb46d1b	-0.022024682
104	0xbbab07e1	-0.005219445
105	0x3cd716ea	0.026256043
106	0xbdb9db92	-0.09075083
107	0xbcb91f9a	-0.022598077
108	0xbca96414	-0.020677604
109	0xbdaf6cf1	-0.08565701
110	0xbd78bbb3	-0.06072588
111	0xbc4881ac	-0.012237947
112	0xbb181047	-0.0023203061
113	0xbd70095b	-0.058602672
114	0xbd762dcb	-0.060102265
115	0x3d09a3bb	0.03360341
116	0x398eb8df	0.0002722209
117	0x3acb3562	0.001550358
118	0xbd60469b	-0.054754835
119	0xbdcb088d	-0.0991374
120	0x3cd1b8c9	0.025600808
121	0x3aebd7e7	0.0017993421
122	0xbd7c56a4	-0.061606064
123	0xbcbba80e	-0.022907283
124	0xbc7ecfcb	-0.015552471
125	0xbc7e0de2	-0.01550624
126	0xbd153ffc	-0.036437973
127	0xbcb73306	-0.022363197
128	0xbd55feb1	-0.052244846
129	0xba947b3c	-0.0011328231
130	0x3ac65951	0.001513282
131	0xbd145876	-0.036217175
132	0xbd232474	-0.039829686
133	0xbd7642c1	-0.060122255
134	0xbcb24e0c	-0.021765731
135	0xbd92220b	-0.071353994
136	0x3bb1d521	0.0054270183
137	0xbd46b241	-0.04850984
138	0x3ba7ce7a	0.0051210495
139	0xbdb17c3e	-0.086662754
140	0x3d0861fb	0.033296566
141	0xbc82d77b	-0.01597189
142	0xbcc20cfb	-0.02368783
143	0xbd2e127b	-0.042498093
144	0xbd7ae29c	-0.061251268
145	0xbca1cd0b	-0.019751092
146	0x3c85361b	0.016261151
147	0xbd8c453d	-0.06849144
148	0xbc18c847	-0.009325094
149	0xbd6197fa	-0.055076577
150	0xba984a29	-0.0011618781
151	0xbd1a1a94	-0.037623003
152	0x3c18ff2d	0.009338182
153	0xbbd4dbfd	-0.006495951
154	0x3d017882	0.031609066
155	0xbcf4e371	-0.029893609
156	0xbd4e0d6f	-0.05030578
157	0xbb0e4567	-0.0021708847
158	0xbc9cc665	-0.01913757
159	0xbcd8570e	-0.026408698
160	0xba9ed201	-0.0012117029
161	0xbd7d713e	-0.061875574
162	0x3bdd7fd8	0.006759625
163	0xbd0927aa	-0.033485092
164	0x3a9d839e	0.0012017374
165	0x3d326e5c	0.04356228
166	0xbbe24631	-0.00690534
167	0xba1b85bf	-0.00059327105
168	0xbcdc01a5	-0.026856253
169	0x3c987a83	0.018613106
170	0xbc27a401	-0.010231973
171	0x3ce8d5f4	0.028422333
172	0xbda9c4c6	-0.08289485
173	0xbce778b3	-0.028255796
174	0xbc519592	-0.012792008
175	0xbd2fbc82	-0.042904384
176	0x3c8ff696	0.017573636
177	0x3ca0b0b4	0.019615509
178	0x3c9197a4	0.017772503
179	0x3c36525e	0.011128036
180	0xbdcc0ed2	-0.09963764
181	0x3d5e96da	0.054343082
182	0xbdce87f7	-0.10084527
183	0xbd61bd71	-0.055112306
184	0xbdaec41a	-0.08533497
185	0xbb486579	-0.003057806
186	0x3b07fc5c	0.0020749783
187	0xbc991989	-0.018688934
188	0xbc8ae3ec	-0.016954385
189	0xbd69b7b5	-0.057059962
190	0xbdafd30a	-0.085851744
191	0xbdabf8e7	-0.08397084
192	0x3cb06ba4	0.021535702
193	0xbc8e6903	-0.017384058
194	0xbd9d37b5	-0.07676641
195	0xbd57691b	-0.05259047
196	0xbb90b903	-0.0044165864
197	0xbd1bbcb3	-0.038021754
198	0x3c8892c3	0.016671544
199	0xbc81fd89	-0.015867965
200	0xbdccc398	-0.09998244
201	0xbcadfc6d	-0.02123853
202	0xbd045c60	-0.03231466
203	0xbc005d06	-0.0078346785
204	0xbd2660fc	-0.040619835
205	0xbcbe79ff	-0.023251532
206	0x3c0c597f	0.008566259
207	0xbdc06fe3	-0.09396341
208	0x3d0bec2e	0.034160785
209	0x3be1279f	0.0068711783
210	0xbda80c8c	-0.08205518
211	0xbd219e4d	-0.039457608
212	0x3d579f9c	0.05264245
213	0xbc5366a5	-0.01290289
214	0x3cdc2065	0.026870916
215	0x3be1e39f	0.0068935896
216	0xbcaf15b1	-0.021372648
217	0x3d0b41d5	0.03399833
218	0x3d0fc0e8	0.03509608
219	0x3d0ce8ba	0.034401633
220	0xbd4d147b	-0.05006836
221	0x3c0d1100	0.00861001
222	0xbb0425ee	-0.002016421
223	0xbdb1d58f	-0.08683311
224	0xbd357695	-0.04430254
225	0xbc89c0e6	-0.016815614
226	0xbb168a5d	-0.0022970655
227	0xbda070e0	-0.07834029
228	0xbcb44e36	-0.02200995
229	0xbd0ce3f3	-0.034397077
230	0xbca854ab	-0.020548185
231	0xbc8080b9	-0.01568638
232	0xbd0feec6	-0.03513982
233	0x3b851d34	0.004062319
234	0xbd275a0e	-0.040857367
235	0x3d21db51	0.039515797
236	0xbc978346	-0.018495213
237	0xbc46ea19	-0.012140774
238	0x3ce2e10c	0.027695201
239	0x3cda7bdf	0.026670394
240	0xbd60f6eb	-0.05492298
241	0x3cf8bb1e	0.030362662
242	0xbce8c7c2	-0.028415564
243	0xbb65cb4d	-0.0035063804
244	0xbce71792	-0.028209481
245	0xbd47517f	-0.048661705
246	0xbd43ddde	-0.04781901
247	0xbd762f0e	-0.06010347
248	0xbbb62708	-0.005558852
249	0xbcd8df52	-0.026473675
250	0x3d1db89e	0.038506143
251	0xbdc449e1	-0.09584404
252	0x3c0c7e10	0.0085749775
253	0x3b5f9c7c	0.0034120372
254	0xbd2a617d	-0.04159688
255	0xbd0e2341	-0.03470159

fc2.bias f4 [300]
0	0xbca2f4a6	-0.019892048
1	0xbdaea36f	-0.08527266
2	0xbd9b9fa8	-0.075988114
3	0xbde048a5	-0.10951356
4	0xbda8082f	-0.08204686
5	0xbd84301e	-0.0645449
6	0xbdac9a91	-0.08427919
7	0xbd9cf825	-0.07664517
8	0xbdb2642c	-0.087105125
9	0xbcdf28b1	-0.027241083
10	0xbdbe5925	-0.09294347
11	0xbdcec54b	-0.100962244
12	0x3f7ae584	0.98006463
13	0xbf52a9cf	-0.8229036
14	0xbd18e4d1	-0.03732759
15	0xbdce37e6	-0.100692555
16	0xbe94a1b8	-0.29029632
17	0xbdf0e4aa	-0.11762364
18	0xbe61d6d5	-0.22054608
19	0x3e78b0d8	0.2428621
20	0xbd44a54e	-0.04800921
21	0x3fa57c7a	1.2928612
22	0xbf23b6b2	-0.63950646
23	0x3f171d13	0.5902874
24	0x3f936a34	1.1516786
25	0x3b25f667	0.002532387
26	0xbd1d7dca	-0.03845004
27	0x3c094348	0.0083778575
28	0x3f2d57ac	0.677119
29	0xbd907196	-0.07052915
30	0xbd823cfd	-0.06359289
31	0xbdb386e3	-0.08765962
32	0xbd9c21a4	-0.07623604
33	0x3f978423	1.18372
34	0xbb5e03e5	-0.0033876833
35	0xbcd11cbb	-0.025526395
36	0x3bd9e8c2	0.0066500613
37	0xbd66f3ea	-0.05638496
38	0xbd4cff44	-0.050048128
39	0xbceea6e2	-0.02913231
40	0x3ecc906c	0.39953935
41	0xbda1c741	-0.07899333
42	0xbdc3ebf6	-0.0956649
43	0xbd99201f	-0.0747683
44	0x3e522ad6	0.20524153
45	0xbdd37fd0	-0.10327113
46	0xbd3e8a47	-0.04651859
47	0xbd31c393	-0.043399405
48	0xbdfc357e	-0.1231489
49	0xbcdf4b6a	-0.02725764
50	0xbdac5b8b	-0.08415898
51	0xbd63d6a7	-0.05562463
52	0x3f0594d1	0.521802
53	0xbc1b6c74	-0.009486306
54	0xbdb4fad3	-0.088369034
55	0xbdb7565e	-0.0895202
56	0xbd5791de	-0.052629344
57	0xbda57ffd	-0.080810525
58	0xbdc10367	-0.09424477
59	0xbd8f5b2a	-0.0699981
60	0xbdb2cc1a	-0.087303355
61	0xbf37336c	-0.7156284
62	0xbcb52837	-0.022113902
63	0xbd8be42a	-0.06830628
64	0x38eba2c9	0.00011235994
65	0xbd18c5fe	-0.037298195
66	0xbc8b6603	-0.017016416
67	0x3f0eac5f	0.5573177
68	0x3ee21a19	0.44160536
69	0xbd416ac0	-0.047220945
70	0xbc3e6533	-0.011620807
71	0x3e7cec02	0.24699405
72	0x3b20f35f	0.0024559123
73	0xbca7d385	-0.020486603
74	0xbd953704	-0.07285884
75	0xbc815cb0	-0.015791267
76	0xbe00d90b	-0.12582795
77	0xbda4642d	-0.080269195
78	0xbd420e49	-0.047376905
79	0xbd9fb810	-0.07798779
80	0x3f1a96ee	0.6038655
81	0xbd2490f6	-0.040177308
82	0x3f257b36	0.6464113
83	0xbdaaf04a	-0.08346613
84	0xbdb8b15b	-0.09018203
85	0xbd799a5c	-0.060938224
86	0xbd6d2ecf	-0.05790597
87	0xbe3187c1	-0.17336942
88	0xbf0c57f2	-0.54821694
89	0xbdd56204	-0.104190856
90	0xbf460e6c	-0.77365756
91	0xbd0cd05c	-0.034378394
92	0xbda9af3d	-0.08285377
93	0xbe87eb83	-0.2654687
94	0x3fb0920b	1.3794569
95	0xbdc36f02	-0.095426574
96	0x3fbd6ded	1.4799172
97	0xbd43fe07	-0.04784968
98	0xbdd84cc5	-0.105615176
99	0xbe390d6f	-0.18071531
100	0xbda42d75	-0.08016483
101	0xbde90905	-0.113786735
102	0xbd960ba3	-0.07326438
103	0xbd3b203c	-0.045685038
104	0xbc094360	-0.00837788
105	0xbdc49533	-0.0959877
106	0xbd766c2f	-0.060161766
107	0xbd23bd9b	-0.039975744
108	0xbc8343a1	-0.016023459
109	0x3d69eed4	0.05711253
110	0x3f0f9902	0.56092846
111	0xbc68d064	-0.01420984
112	0xbd1d7992	-0.038446017
113	0xbe2545be	-0.16139886
114	0xbdcef9bd	-0.101062275
115	0xbd4b8d50	-0.049695313
116	0xbd82b688	-0.06382471
117	0xbd9da705	-0.07697872
118	0xbda3388e	-0.07969771
119	0xbd1c672a	-0.038184322
120	0xbd63b314	-0.055590704
121	0xbd8df2dc	-0.069310874
122	0xbb72d7ba	-0.0037054853
123	0xbdb7a6cc	-0.08967361
124	0x3cf0af42	0.029380444
125	0xbe1c24dc	-0.15248436
126	0x3c8370f8	0.016045079
127	0xbdaea42f	-0.08527409
128	0x3bd37ba6	0.006453949
129	0xbd1568a9	-0.036476765
130	0xbd6f801e	-0.05847179
131	0xbd965a11	-0.073413976
132	0x3ef510bb	0.47864327
133	0xbd4b36e6	-0.049612902
134	0xbcae6175	-0.021286706
135	0xbdc9a014	-0.098449856
136	0xbd8760f9	-0.06610293
137	0xbf11f13b	-0.57008713
138	0xbd2491b6	-0.040178023
139	0xbdfbf169	-0.12301905
140	0xbd9f3444	-0.07773641
141	0xbcad8698	-0.021182343
142	0xbd98b639	-0.07456631
143	0xbe3060b3	-0.17224388
144	0xbd0c2f4e	-0.0342248
145	0xbd83cd61	-0.06435657
146	0xbd9762f4	-0.07391921
147	0xbdc2b7a4	-0.09507683
148	0x3f678187	0.9043202
149	0xbda7f2e5	-0.08200625
150	0xbd88d6ba	-0.06681581
151	0xbd85e8ca	-0.065385416
152	0xbefc2c62	-0.4925261
153	0xbd0c27f9	-0.03421781
154	0xbd823200	-0.06357193
155	0xbdb7dd84	-0.089777976
156	0xbc1da69c	-0.009622242
157	0xbd391936	-0.04519006
158	0xbd8720a9	-0.06598026
159	0xbd7cb90a	-0.061699905
160	0xbe6330ec	-0.22186631
161	0xbc045fbd	-0.008079466
162	0xbd604891	-0.054756705
163	0xbd1394d1	-0.036030594
164	0xbcb66ef2	-0.0222697
165	0xbd57d164	-0.052689925
166	0xbd77efa3	-0.06053127
167	0x3e614454	0.21998721
168	0xbd7b680e	-0.06137853
169	0xbd8f154b	-0.06986483
170	0xbdb000dc	-0.08593914
171	0x3f403d56	0.7509359
172	0xbd6a40c0	-0.057190657
173	0xbc41af66	-0.011821603
174	0xbd360108	-0.044434577
175	0xbdb8e549	-0.09028108
176	0xbd865164	-0.06558493
177	0xbf0586c7	-0.5215878
178	0xbdcbbed3	-0.09948506
179	0xbdf52c98	-0.11971396
180	0x3f5029cd	0.8131378
181	0xbe1a60a2	-0.15075925
182	0xbdadde7d	-0.08489702
183	0xbceaceb3	-0.028663015
184	0xbe081442	-0.13288978
185	0xbe638c41	-0.22221471
186	0xbdd8131f	-0.10550522
187	0xbda1767c	-0.07883927
188	0x3f257d75	0.6464456
189	0xbe0a72a1	-0.1352029
190	0xbf0cddfe	-0.55026233
191	0xbe00569b	-0.12533037
192	0xbf38638b	-0.7202689
193	0xbe0506fc	-0.12990946
194	0xbdc56484	-0.096383125
195	0xbd03d296	-0.032183252
196	0xbda56b87	-0.0807715
197	0x3f67d3eb	0.90557736
198	0xbe9b04ce	-0.30277103
199	0xbeb64f33	-0.356073
200	0xbd29a78e	-0.04141956
201	0xbbe943bf	-0.0071186717
202	0xbe0978b4	-0.13424951
203	0xbdadbb74	-0.084830195
204	0xbf07e19c	-0.5307863
205	0xbd638e5c	-0.055555686
206	0xbcd246c2	-0.025668506
207	0xbf3bc847	-0.73352474
208	0xbd106c02	-0.035259254
209	0x3eb05697	0.34441063
210	0xbcc692c6	-0.024239909
211	0xba54b700	-0.00081144273
212	0xbd25aba4	-0.040446892
213	0xbdc409a0	-0.09572148
214	0xbe121979	-0.1426753
215	0xbcaf03f9	-0.021364199
216	0xbd98cdfa	-0.07461162
217	0xbe047254	-0.12934238
218	0x3f570834	0.8399689
219	0xbb79822f	-0.003807198
220	0xbcbc88ad	-0.02301439
221	0xbdeacfc9	-0.11465413
222	0xbdc5fc1f	-0.09667229
223	0xbac86d65	-0.0015291391
224	0xbcd63ee2	-0.026153032
225	0xbd9bdb12	-0.07610144
226	0xbd937e43	-0.07201817
227	0x3f7dfc0a	0.99212706
228	0xbdaefe5f	-0.08544611
229	0xbd8e187d	-0.069382645
230	0xbdb2fc3a	-0.08739515
231	0xbd8fe999	-0.07026977
232	0xbd328743	-0.043586027
233	0xbc8ad86b	-0.0169489
234	0xbf2cf553	-0.67561835
235	0xbdaf1226	-0.085483834
236	0xbe048df4	-0.12944776
237	0xbda09a67	-0.0784195
238	0xbe0ba7bd	-0.13638206
239	0x3b9d7163	0.0048047765
240	0xbd0d56c2	-0.034506567
241	0xbc749e17	-0.01493027
242	0xbcb363f5	-0.02189825
243	0xbd57b201	-0.052659992
244	0xbd8a7787	-0.06761079
245	0xbd62a9f7	-0.055337872
246	0xbca38770	-0.019962043
247	0x3f71aa3c	0.9440038
248	0xbc209de6	-0.009803271
249	0xbd686d9b	-0.056745153
250	0xbd6c6a8d	-0.057718802
251	0xbdb89aee	-0.090139255
252	0xbf0f0c69	-0.5587831
253	0x3f2313c4	0.63702035
254	0xbca60d43	-0.020269996
255	0xbde236a5	-0.11045579

fc3.weight f4 [1, 300]
0	0x3c23d27e	0.009998916
1	0x3c29c710	0.010362402
2	0x3c209136	0.009800246
3	0xbc82263f	-0.015887378
4	0x3c6f16cb	0.014592837
5	0xbbb58388	-0.0055393614
6	0xbc8fdcc8	-0.017561331
7	0xbc75f70d	-0.015012515
8	0xbcda4ff0	-0.026649445
9	0x3c792218	0.0152058825
10	0xbcfb4524	-0.030672617
11	0x3cb9cab2	0.02267966
12	0x3da07581	0.07834912
13	0xbc8a8c20	-0.01691252
14	0x3b852bf1	0.004064076
15	0x3c9a4b8a	0.018834848
16	0xbd591dc5	-0.053006906
17	0x3c0b919a	0.008518601
18	0xbd236be5	-0.039897818
19	0x3d064d0c	0.03278832
20	0x3cf7ab83	0.03023315
21	0x3d6c8b5f	0.057750102
22	0xbc93c23e	-0.018036958
23	0x3cec3ec7	0.028838528
24	0x3d1dae1a	0.038496114
25	0x3c8cf5ef	0.017207114
26	0xbcc19067	-0.023628427
27	0x3b0e9471	0.0021755958
28	0x3cb685ff	0.022280691
29	0x3bc75fbb	0.00608441
30	0x3cd1e512	0.025621925
31	0xba6b7e52	-0.0008983362
32	0x38ef2cbf	0.00011404743
33	0x3d6f7059	0.058456752
34	0xbc088296	-0.008331915
35	0xbb577683	-0.0032877035
36	0x3cf9673e	0.030444738
37	0xbc430238	-0.011902384
38	0x3c93ae74	0.018027522
39	0x3a85350e	0.0010162906
40	0x3d0e2d34	0.034711078
41	0x398080ac	0.0002450993
42	0xbb057d29	-0.002036879
43	0xbcc8b7a2	-0.024501625
44	0x3cf95b5a	0.030439068
45	0x3cdb9324	0.02680356
46	0xbc4043aa	-0.011734882
47	0xbc3096f9	-0.010778182
48	0x3c6d1f40	0.014472783
49	0x3c6badb8	0.0143846795
50	0x3bf0b41f	0.007345691
51	0x3c129a1d	0.008947876
52	0x3c9830c0	0.018577933
53	0x3b96b456	0.0045991344
54	0xbc87d767	-0.016582204
55	0xbc9b1775	-0.018932084
56	0x3be68712	0.0070351446
57	0x3c3ab6fd	0.011396167
58	0xbca287d3	-0.019840157
59	0xbc20d885	-0.009817247
60	0xbcd32cee	-0.02577826
61	0xbc8d5cfa	-0.017256249
62	0xbb78813c	-0.0037918827
63	0xbba9606f	-0.0051689665
64	0xbc54691e	-0.012964515
65	0xbc3d707a	-0.011562461
66	0xba1fc22a	-0.00060943014
67	0x3d0caab4	0.034342483
68	0x3c93387c	0.01797127
69	0xbbfd8976	-0.007737334
70	0xbbbdab6e	-0.0057882583
71	0x3d0c60e1	0.03427208
72	0x3c49d5f8	0.0123190805
73	0xbb0f1eb2	-0.0021838364
74	0x3c3631ce	0.011120273
75	0xbc0e63a6	-0.00869075
76	0x3bccd4d8	0.006250959
77	0xbae026a0	-0.0017101355
78	0xbb33aadc	-0.0027415073
79	0x3ba048e2	0.004891501
80	0x3c7d19a2	0.015448006
81	0x3c377764	0.011197899
82	0x3d089dde	0.03335368
83	0x3c69349a	0.014233733
84	0x3b29eaa8	0.002592722
85	0x3aa2ebba	0.0012429871
86	0x3bc9d9da	0.006160003
87	0xbb88f13e	-0.004179149
88	0xbc318794	-0.010835547
89	0x3c6c6957	0.014429412
90	0xbcc4100c	-0.023933433
91	0x3c5030c3	0.012706938
92	0x3d22b6a5	0.039724965
93	0xbc6ee200	-0.01458025
94	0x3d8cde00	0.06878281
95	0xbcb176e9	-0.021663146
96	0x3d5a9f3e	0.05337452
97	0x3c308116	0.010772964
98	0x3c7776c7	0.015104002
99	0xbd862066	-0.06549148
100	0x3b003247	0.0019561218
101	0x3d21db01	0.0395155
102	0xbc2ba9ab	-0.010477464
103	0xbc505248	-0.01271493
104	0x3cd99c8a	0.026563901
105	0x3ba4fec1	0.005035252
106	0xbcf6045a	-0.030031372
107	0xbc5d9389	-0.013523945
108	0xbc99bd10	-0.01876691
109	0x3cad6b71	0.021169396
110	0x3ce219cb	0.02760019
111	0xbab777f5	-0.0013997542
112	0x3bc2d940	0.0059463084
113	0xbcb40893	-0.021976745
114	0x3ca00e9a	0.019538213
115	0xbca926b2	-0.020648334
116	0xbc9cec78	-0.019155726
117	0x3c8ceefa	0.017203797
118	0x3c4ea9f4	0.012613762
119	0x3c5593de	0.013035743
120	0x3bfcf613	0.007719764
121	0x3ae9cbe7	0.0017837257
122	0x3bb50505	0.00552428
123	0x3c3e6ddb	0.011622871
124	0x3b51e5cb	0.0032027836
125	0xbb5eef58	-0.0034017172
126	0xbc6dd18a	-0.01451529
127	0x3cd20c60	0.025640666
128	0x3cf75d41	0.030195834
129	0x3cad7701	0.02117491
130	0xbcc671fc	-0.024224274
131	0x3ceefe3f	0.029173968
132	0x3c9d9eec	0.019240819
133	0xbbecf575	-0.007231409
134	0x3c8a6b88	0.016896978
135	0xbb5c0469	-0.0033571965
136	0x3ba0fdbe	0.004913061
137	0xbc619197	-0.0137676215
138	0xbb25f1ad	-0.0025321052
139	0x3c7efbc3	0.015562954
140	0x3c9846b5	0.018588403
141	0xbccf6813	-0.025318181
142	0x3cad4a46	0.02115358
143	0x3a4a5d8d	0.00077196286
144	0x3a1aae7c	0.0005900634
145	0xbc46861d	-0.012116936
146	0x3cc775a6	0.024348091
147	0x3c0b4dc9	0.008502432
148	0x3d104ffd	0.035232533
149	0x39f5b1e7	0.0004686259
150	0xbccfb268	-0.025353625
151	0x3a940a36	0.0011294547
152	0xbc9fff01	-0.019530775
153	0xbb73e263	-0.0037213794
154	0x3beb9f0b	0.0071905903
155	0xbcd0aac8	-0.02547206
156	0xbc9cc967	-0.019139005
157	0x3a95d41d	0.0011431013
158	0xbc678af5	-0.014132251
159	0xbc16b398	-0.009198092
160	0x3d0c6dbc	0.03428434
161	0x3c4e1202	0.012577536
162	0x3c31af2f	0.01084499
163	0xbcc18942	-0.02362502
164	0xbc84594f	-0.016155867
165	0xbc2f44ee	-0.010697586
166	0x3c5c66b4	0.013452221
167	0x3ccbcca6	0.024877857
168	0x3b6166a8	0.0034393463
169	0x3b680f53	0.0035409525
170	0xbc363553	-0.011121112
171	0x3c8f8e3f	0.017523883
172	0x3cbb176c	0.022838317
173	0x3b595467	0.003316188
174	0x3ccd555e	0.02506512
175	0xbab1d56c	-0.0013567633
176	0xbb3e9678	-0.0029081386
177	0xbcdf5fb1	-0.027267309
178	0xbcdae3f1	-0.026720019
179	0x3bed9c63	0.0072513088
180	0x3cd96303	0.02653647
181	0xbb52edcb	-0.0032185193
182	0xbc9f8cdd	-0.019476349
183	0x3b6d3c1a	0.0036199153
184	0xbca0c92b	-0.019627174
185	0xbcafe7e0	-0.021472871
186	0x3d091258	0.03346476
187	0x3cb87e0a	0.022521038
188	0x3ca19d48	0.019728318
189	0xb929e841	-0.00016203617
190	0xbcb0ed7e	-0.02159762
191	0x3c1a5cf3	0.009421575
192	0xbd8090a9	-0.06277592
193	0xbd29184f	-0.041282948
194	0xbc257cb0	-0.010100529
195	0x3c0c958e	0.0085805785
196	0xb9db02df	-0.00041773074
197	0x3cc41867	0.023937417
198	0xbce40f4e	-0.02783933
199	0xbd04dfed	-0.032440115
200	0xbc11bc4d	-0.008894992
201	0x3cd2363b	0.025660625
202	0x3c378b10	0.011202589
203	0x3caa498b	0.020787021
204	0xbcc487df	-0.02399057
205	0xbc9f702b	-0.019462666
206	0xbc9299bd	-0.017895574
207	0xbca4f7f0	-0.020137757
208	0x3cfa1d06	0.030531418
209	0x3cf9a07f	0.030472038
210	0xbbc76304	-0.0060848016
211	0xbc025d09	-0.007956752
212	0x3cb77d78	0.022398695
213	0x3a5ec2c5	0.0008497651
214	0xbccaecdd	-0.024771148
215	0x3c8b6b0d	0.01701882
216	0xbbeab443	-0.007162602
217	0x3bd2dc86	0.00643498
218	0x3d077f4d	0.033080388
219	0x3b03c29c	0.002010501
220	0x3cc3b64b	0.023890635
221	0xbc0eb0c0	-0.008709133
222	0xbcdf5b8e	-0.027265336
223	0xbc913994	-0.01772765
224	0x3ccbc885	0.024875889
225	0xbbee51b0	-0.0072729215
226	0xbbad1477	-0.0052819806
227	0x3cafd2b0	0.021462768
228	0xba755a2b	-0.00093594444
229	0x3cf6fd56	0.030150097
230	0xbc91f862	-0.017818633
231	0xbc0d1d9f	-0.008613019
232	0x3cc12b6e	0.02358028
233	0x3ceab6f5	0.028651694
234	0xbd08b4cf	-0.033375558
235	0x3c2f289f	0.010690837
236	0x3ce42916	0.027851623
237	0xbbc0b295	-0.0058806636
238	0xbc0dfda0	-0.008666426
239	0x3ab70eca	0.00139662
240	0x3b81396f	0.003943614
241	0xbbd5bea0	-0.0065229684
242	0x3aa91588	0.0012900094
243	0x3ca688b2	0.020328853
244	0x3c254584	0.010087375
245	0xbc425211	-0.0118603865
246	0xbbd5665e	-0.0065124473
247	0x3d2af399	0.04173622
248	0x3c409c05	0.011755948
249	0x3ccca23c	0.024979703
250	0xbc790c68	-0.015200712
251	0x3d0c3c89	0.03423742
252	0xbc8e1b4f	-0.017347006
253	0x3ca8f7f5	0.020626048
254	0xbcab7cc2	-0.020933513
255	0x3b29066d	0.0025791184
